trained_models/corridor_tmp.pt (torch, 46528 bytes, 7 tensors)

X f4 [96, 96]
000000 96 94 1d be 46 88 9c bd 3d eb 8c bd 99 3a 26 be
       -0.15388712 -0.076431796 -0.06880806 -0.1623329
000010 1e d4 12 bc ef d4 84 bd 69 46 c6 bd 30 5c 23 be
       -0.0089617055 -0.06485926 -0.096813984 -0.15953135
000020 d6 07 94 bd a9 e6 e3 3c 75 95 a1 bd 6b 0a c5 bc
       -0.07228057 0.027819948 -0.07889835 -0.02405282
000030 a2 55 bf bc e8 62 2e 3e 44 e7 bd 3c 03 0a 3f 3d
       -0.023356263 0.17029917 0.023181565 0.046640407
000040 6c 2e 8f bd ee cb f0 bd 04 5a 91 3d 06 3d a5 3c
       -0.06991276 -0.117576465 0.07097247 0.0201707
000050 fb bc ae 3d a0 4d bc 3c e1 54 85 bd 39 10 a7 3d
       0.08532139 0.022986233 -0.0651033 0.08157391
000060 91 b5 e3 3d 95 81 87 bc 9c 9f 64 be 81 00 15 be
       0.111186154 -0.016541282 -0.22326511 -0.14550973
000070 a2 c2 9a 3b bb 03 78 bd 16 ba a0 bd d4 8f 49 bc
       0.004722909 -0.060550433 -0.07847993 -0.012302358
000080 64 ca 41 3e cc 73 19 bc 82 3f 86 3c 13 9f 9f bd
       0.18924862 -0.009365987 0.016387705 -0.07794013
000090 27 15 a5 3c 3d a0 8d 3b de 32 8b 3c dc 04 49 bd
       0.020151688 0.0043220804 0.016992029 -0.0490769
0000a0 81 19 09 bc e9 85 00 3d 7b ce 69 bc df 4f ab ba
       -0.008367897 0.031377707 -0.01427042 -0.0013070068
0000b0 9f 74 73 3e b1 cd d3 bd 35 83 23 3e 52 a5 79 bd
       0.23774956 -0.10341967 0.1596802 -0.060948677
0000c0 fa de bb bd c5 7a 58 3d 11 cd ce 3b b7 37 30 bd
       -0.09173389 0.052851457 0.006311067 -0.043021884
0000d0 1e e9 9c 3d 37 a6 34 3d a1 1e eb 3d c4 cc 4f 3e
       0.07661651 0.044103827 0.114804514 0.20292956
0000e0 19 69 37 3c b5 c0 bc 3d f3 41 8f bc 64 2f 85 bd
       0.011194491 0.092164434 -0.017487502 -0.0650318
0000f0 51 5f 1c 3e 01 9c af bd 80 a0 ab be 4a d9 9d bd
       0.15270735 -0.08574677 -0.3352089 -0.0770746
000100 17 09 44 bb e2 11 d3 bd 3f 58 72 bd 61 30 c9 bd
       -0.0029912645 -0.10306145 -0.05916619 -0.09823681
000110 aa fe ae bc 90 5a e2 ba 53 e6 2a 3e 72 54 90 ba
       -0.021361668 -0.0017269421 0.16689424 -0.0011011495
000120 54 1b 94 bd ae 46 ba bc 08 3d c8 bd 1f 12 ac bd
       -0.07231775 -0.02273878 -0.09777266 -0.08401894
000130 49 ed 39 bd 22 7d 63 bd d7 f1 1c 3d fe 2d c9 bd
       -0.04539231 -0.055539258 0.038316574 -0.098232254
000140 5f a8 48 bd dd 0c 20 3c d6 3d 88 bd b7 20 97 3d
       -0.048988696 0.009768692 -0.06652419 0.07379287
000150 dc 28 11 be 3b 70 4f bd d9 2a 82 3c 51 b4 97 bc
       -0.14175743 -0.05064414 0.015889572 -0.018518599
000160 34 5e f5 3c 69 1b 4c bd 83 b2 d6 bd f5 48 96 3d
       0.029952146 -0.049830828 -0.10483267 0.07338134
000170 cc 90 d5 bd 85 68 48 bd 04 9a dd 3c d2 46 4b 3e
       -0.104280084 -0.048927803 0.02705098 0.19851235
000180 aa 65 86 3d 25 ed ef 3d 57 75 a2 3d a5 33 ba bd
       0.0656236 0.117151536 0.07932537 -0.09091882
000190 51 28 0d 3e c9 df aa bd 49 c1 b4 bd e7 45 e8 3d
       0.1378491 -0.08343465 -0.08825929 0.11341458
0001a0 93 d3 08 3e d5 b3 80 3d 96 30 50 bc 17 3a 45 bc
       0.13361959 0.062843 -0.012706896 -0.0120377755
0001b0 50 f6 5b be c0 de 7a bd 20 87 14 be 9a 54 e9 bd
       -0.2148068 -0.061247587 -0.14504671 -0.113930896
0001c0 35 d5 b1 3d 77 0b 6b bd 3a 53 07 3e ab 52 a6 3d
       0.08683244 -0.05738398 0.13215342 0.081212364
0001d0 17 23 84 3c 6a 7e 01 3d 12 90 6e 3d a9 0b 21 bd
       0.016130013 0.0316147 0.058242865 -0.03931776
0001e0 d4 d8 82 3e b6 66 aa bc 8e e2 56 3b cb 16 3a 3e
       0.25556052 -0.02080093 0.0032788846 0.18172757
0001f0 06 f3 4c be 32 3a 39 3e 7e e1 3b 3c d6 42 16 3d
       -0.20014581 0.18088606 0.011467336 0.036684833
000200 60 84 98 3d 0d ba 39 be 06 a6 11 3d 05 52 f5 3d
       0.074471235 -0.18137379 0.035558723 0.119785346
000210 93 d5 e1 bc 8e c1 36 be d9 58 87 3d 4e 1e a2 bd
       -0.02756766 -0.17847273 0.06608743 -0.079159364
000220 30 4f 25 be e7 29 42 be e9 cc 6a 3d 09 b9 82 3d
       -0.16143489 -0.18961297 0.057324324 0.06382949
000230 4b e0 6b 3e 16 c9 85 3d 47 8f 2d 3e 84 6c 34 be
       0.2303478 0.06532495 0.16949187 -0.1761952
000240 a2 69 0d be af 6e c5 bd 0d 2b 1a 3e 26 03 87 3d
       -0.13809827 -0.09640252 0.15055485 0.065923974
000250 fd 51 43 3d 83 03 30 bd 30 49 62 3d 39 01 20 be
       0.047685612 -0.0429721 0.05524558 -0.15625466
000260 12 d9 4f 3d 8b 66 48 3c a6 5e e6 3c 9b c1 06 3e
       0.050744124 0.012231479 0.028121304 0.13159792
000270 da 8e 31 3e 4f 75 3d 3e 25 da 8d bd aa 0e 82 3e
       0.1733965 0.18501781 -0.069263734 0.25401813
000280 71 93 26 3d 9a d4 bb bc b8 31 ab bd f7 86 27 bd
       0.040667955 -0.022928525 -0.083590925 -0.040900197
000290 e1 8b 7a bd 8a d4 ca bd a5 37 af 3d a4 ee c5 3d
       -0.061168555 -0.0990382 0.08555535 0.09664658
0002a0 b8 ef eb 3c df 93 1b 3e 12 e4 f7 3d c6 d1 3a be
       0.02880083 0.15193127 0.12104048 -0.18244085
0002b0 1a 04 21 bd ed 7a c2 bd 1e aa b9 ba 13 27 fd bb
       -0.039310552 -0.094961025 -0.0014165079 -0.0077256053
0002c0 93 09 b0 3d 73 cb ec 3d d9 b3 49 3d f7 7d 26 3e
       0.08595576 0.11562242 0.04924378 0.1625899
0002d0 2e 49 c5 bd 0e ef 57 3c a1 94 91 bc 75 c5 20 bd
       -0.096330985 0.013179554 -0.017771067 -0.03925081
0002e0 a2 8e 32 3e a9 8e ff bc ce ae cc 3c 8d b9 0b 3e
       0.17437223 -0.031195955 0.024985697 0.13645001
0002f0 21 22 2d 3c 51 9f d8 3d 56 30 0c bd 37 28 c5 3d
       0.010567219 0.10577262 -0.034225784 0.09626811
000300 c8 9a 6b bd 76 b9 aa 3d e3 db 35 3e 55 fe ad bc
       -0.057520658 0.08336155 0.17759661 -0.021239439
000310 fe c3 52 3d f0 46 40 be 9c 0d 95 be 7c 1a 67 bd
       0.051456444 -0.1877706 -0.29111946 -0.05642174
000320 02 77 5b bd 73 ae b6 3d 38 5e b5 bd d3 92 5d 3d
       -0.05358029 0.08919992 -0.088558614 0.0540951
000330 8b ae 1e be 7c 51 87 bc b4 94 95 3d ce bb b1 3b
       -0.1549627 -0.016518347 0.073037535 0.0054239994
000340 ff 7b bb 3d 82 3f d5 3d 86 7d 51 bd c5 44 0d 3e
       0.0915451 0.10412504 -0.0511451 0.13795765
000350 f9 69 bd 3c af ce 42 3e f2 48 3c 3e 55 58 0a 3e
       0.02312182 0.19024156 0.18387201 0.13510258
000360 f6 dc c5 bd cf b7 00 3e bd ba f8 3d 4e 71 59 bd
       -0.096612856 0.12570117 0.121449925 -0.05308657
000370 ff 69 ab 3c 1a 92 66 bd 9c 50 16 3e 1c 51 37 3e
       0.020924566 -0.056291677 0.14679188 0.17902035
000380 98 5a 2a 3e c6 f2 37 bd 09 7a db bc 1d 73 12 be
       0.16636121 -0.04490926 -0.02679159 -0.14301725
000390 2c 89 00 3e bb 69 02 3e eb aa 29 3d d0 43 25 3d
       0.12552327 0.12735645 0.041422766 0.040347874
0003a0 dc 31 04 bc c0 48 02 3d 9e 4a c3 3d 0d cf 10 be
       -0.008068528 0.03180766 0.095357165 -0.14141484
0003b0 78 c6 2d 3e b0 84 75 be fb ed c3 bd 8e b5 f3 3c
       0.16970241 -0.23976398 -0.095668755 0.029749658
0003c0 71 7b 9a 3c 82 13 c2 3d 54 4a 18 3e d5 eb 5c bd
       0.01885769 0.09476377 0.14872104 -0.053935844
0003d0 32 2f 9d bd dd 71 96 bc eb 43 c6 bc 31 5c 92 bb
       -0.076750174 -0.018364841 -0.024202308 -0.0044665565
0003e0 48 9b 18 3d 59 84 65 bd 58 06 73 bd 1b 31 c7 3d
       0.037257463 -0.05603442 -0.05933222 0.09726163
0003f0 5f a2 0b bc f0 67 fa bd 11 47 f2 bb 91 6a 6d 3d
       -0.008522599 -0.12226856 -0.0073937257 0.057962958

Y f4 [32, 32]
000000 a1 f0 06 be 3e 7a c6 bd 8b 77 39 3e 8f 9b 17 3e
       -0.1317773 -0.096912846 0.18112008 0.14805435
000010 4e ac 01 3e 83 81 c5 3d f4 8a 99 3d 8d a0 ab bd
       0.12663385 0.09643843 0.07497206 -0.08380232
000020 63 74 2b be 07 b6 59 bd 52 cd 5d 3e 9b b1 3b bd
       -0.16743617 -0.05315211 0.21660355 -0.045823675
000030 c7 b4 ea 3d 15 bd d7 bc be 46 f2 3d cc 91 8f bd
       0.11460262 -0.026335279 0.11829899 -0.070102304
000040 53 f4 8b 3d 55 56 31 3d 37 75 25 bd e2 53 96 bd
       0.068337105 0.043295223 -0.040394988 -0.07340218
000050 4b 78 a9 3c de 55 0d 3e f3 db 3a 3e 36 c6 5a bd
       0.020687243 0.13802287 0.18247966 -0.053411685
000060 79 97 42 3e ec a7 34 3c 2f d8 65 3d 47 50 57 3e
       0.19003095 0.011026364 0.056114372 0.21026717
000070 1f 66 80 bd 16 08 f3 3d d5 d0 3d 3c 77 b5 d5 bc
       -0.06269478 0.11866777 0.011585434 -0.026087506
000080 f6 13 a8 3d 15 08 62 3e f1 39 df 3d 00 6e 1e 3b
       0.08206932 0.22073396 0.10899723 0.0024174452
000090 0a 36 1f be 44 4d da bd 1b cd ec 3d 0d c9 e9 bd
       -0.15547958 -0.106592685 0.11562558 -0.114153005
0000a0 ee 1f 21 bd 05 1f cb 3c 74 21 53 be a1 be 09 be
       -0.03933709 0.024795065 -0.2061823 -0.13451625
0000b0 5e cc 6e 3c cd 02 82 be e5 64 90 bd 6b d3 1c 3e
       0.014575092 -0.25392762 -0.07050494 0.15315025
0000c0 3f 32 1a bd 01 fa 83 bd 6c 93 46 be db 15 87 bd
       -0.037645575 -0.06444169 -0.19392174 -0.065959655
0000d0 e7 19 5e 3d 16 b9 67 bd 02 6e 0b 3e b6 5c e3 bd
       0.05422392 -0.056572996 0.13616183 -0.111016676
0000e0 42 ec 08 bd e4 7a d7 bd 82 d4 eb bd 03 d6 19 3e
       -0.033428438 -0.105214864 -0.11515142 0.15023045
0000f0 ce df a7 3d ba cc b1 3d c8 18 bb b9 b9 8d bc bc
       0.08196984 0.086816266 -0.00035685883 -0.023016797
000100 c2 71 c4 3d 93 e6 a0 3d e3 74 8d 3d 00 1e 3e 3d
       0.0959201 0.078564785 0.0690706 0.04641533
000110 5b 3f 7f bd 22 5a de 3d a1 dc 29 be bf 49 24 bd
       -0.06231628 0.10857035 -0.1658807 -0.040109392
000120 2c d1 61 3a 57 27 53 3d 1c 16 05 bd 6e 1e 19 be
       0.0008614238 0.05155119 -0.03249179 -0.14953014
000130 b6 d2 4b bc 09 ec a9 3d 01 c0 ba 3d 79 d1 32 3d
       -0.012440374 0.08296973 0.09118653 0.0436568
000140 f6 d5 8e bd 4a 62 1c 3e 7a 85 25 3e b5 f0 48 be
       -0.069744036 0.1527187 0.16164199 -0.19623072
000150 7d e6 52 3b 61 06 35 3e fb f8 36 be 5b 3c 86 bd
       0.0032180839 0.17678215 -0.17868416 -0.06554481
000160 a8 4b e5 bd 63 42 84 3e bb 82 96 3e 40 31 1d bc
       -0.11196071 0.258319 0.29396614 -0.009594262
000170 9e 53 7b bd 3a 19 30 3e 7b 59 c5 3b 2e 5e 25 bd
       -0.06135904 0.17197123 0.00602263 -0.04037302
000180 0b b3 c3 bc b2 9a 30 3d 45 2b 2a 3c c4 12 2e 3e
       -0.023889085 0.04311628 0.010386293 0.16999346
000190 54 b1 a9 bd 66 fc 15 bd 85 33 89 bd b2 ef b7 bd
       -0.08285776 -0.03661766 -0.0669928 -0.08981265
0001a0 cd 4e c2 bd bb 34 2d 3e 06 1b b0 bd 03 91 a8 3d
       -0.09487686 0.16914646 -0.08598904 0.08230784
0001b0 db 1b 0a 3d df 3b ec 3d 88 d8 f8 bd 2e 9f c0 3d
       0.03371797 0.11534857 -0.12150675 0.09405361
0001c0 41 34 fb bd c3 32 32 be a8 92 13 3e 11 e0 43 be
       -0.12265826 -0.17402177 0.14411414 -0.19128443
0001d0 de aa 01 be ab 52 32 3e df 56 6d bd 50 6a 80 3d
       -0.12662837 0.17414348 -0.057944175 0.062702775
0001e0 d7 b7 b4 bd 7a e2 22 3d c8 27 36 bd 93 c7 13 be
       -0.08824127 0.039766766 -0.044471532 -0.144316
0001f0 28 46 a7 bd 21 a5 37 bd 45 ce 4f 3e 0d 95 f8 3d
       -0.08167678 -0.044835214 0.2029353 0.12137804
000200 87 e1 8a bc 91 0d d8 3d 22 62 7d be 82 ad 0d 3d
       -0.016953243 0.105494626 -0.24744466 0.034589298
000210 e2 5e d0 bd 40 51 eb bd 20 53 eb 3d 98 13 09 be
       -0.101743475 -0.114901066 0.11490464 -0.1338638
000220 a6 39 3c 3d 61 7e 89 3d be 2f 20 be cc 74 cb 3d
       0.045953415 0.06713558 -0.15643212 0.099343866
000230 59 f0 25 bd ab 0b c5 3d 82 96 4b bd 36 30 e7 bd
       -0.040512417 0.09621366 -0.049704082 -0.112884924
000240 00 ce 38 3e 14 8c 01 be df 4d 01 3c b8 16 ad 3b
       0.18047333 -0.12651092 0.007892101 0.0052822493
000250 76 62 f4 3d f5 bd 63 3d 44 80 ca 3c ee 4a b8 bd
       0.119328424 0.05560108 0.024719365 -0.08998667
000260 59 1f 26 3e ef ed 29 3d db 6f cc 3d 76 57 70 bd
       0.16222896 0.041486677 0.09982272 -0.05867716
000270 93 2d 9c 3d 84 d1 97 bb 8a 76 d5 bd ea a0 9b 3d
       0.0762588 -0.0046331305 -0.10423 0.07599051
000280 20 b7 07 be 3d 78 00 bd bf 47 d5 3c 26 84 54 be
       -0.1325345 -0.03136467 0.026035188 -0.20753536
000290 00 a6 ff 3d 89 00 86 3d 8a 08 2b be 9b c7 0a 3e
       0.12482834 0.06543071 -0.16702476 0.13552706
0002a0 fa 64 d9 3c ae 7b 0f be 60 49 94 bd b1 42 97 3d
       0.026537407 -0.14012024 -0.07240558 0.07385767
0002b0 f1 62 18 3e 21 3a ba 3d e6 d6 3b bb 2a d0 2c 3e
       0.14881493 0.090931185 -0.0028662025 0.16876283
0002c0 6a 26 25 bd 4a 6c bb 3c 37 0b 74 bd bd f9 0e 3c
       -0.040319838 0.022878785 -0.059581008 0.008726534
0002d0 b8 61 95 3d 2b d6 de 3d 24 47 94 bd 2f 49 29 bd
       0.07294029 0.10880693 -0.072401315 -0.04132956
0002e0 43 5a 47 be b3 1c 99 bd 47 d7 5c 3e 6a 22 61 bd
       -0.19468026 -0.07476177 0.21566497 -0.05496446
0002f0 cc 98 37 3d 17 db 25 3e 25 1c a9 3d 9c 56 38 3e
       0.044823453 0.16196857 0.08257321 0.18001789
000300 1e b4 46 3e 98 1b 44 3d b4 1d 96 3d d9 4a fd bc
       0.19404647 0.047877878 0.07329884 -0.03091948
000310 ae 2f c0 3b b9 94 dc ba cd 63 25 3e 0b c5 11 bd
       0.005865059 -0.0016828991 0.16151352 -0.035588305
000320 ed 98 12 3d 27 8b 87 3c 07 c4 ab bb 84 ed ee 3d
       0.035790373 0.016545845 -0.005241874 0.11666396
000330 fa 9e 42 bc 65 f9 2b 3c dd fc 95 3d e4 a2 d0 3d
       -0.011878723 0.010496472 0.073236205 0.10187319
000340 6a be 53 3d 75 a2 58 3d f0 69 a1 3d fc 95 52 3d
       0.051695265 0.052889306 0.07881534 0.051412567
000350 cf 91 df 3b c1 62 ed 3d 01 95 44 bd d8 86 0b 3d
       0.0068228017 0.115911014 -0.047993664 0.034064144
000360 fb 34 28 3e 9c d5 0d 3d ff 74 17 be 34 8f da bd
       0.1642646 0.034627542 -0.14790724 -0.10671845
000370 93 ab 59 be f3 df 81 bd 3c d8 f0 3d 6b 2b dc bd
       -0.21256857 -0.06341543 0.117599934 -0.10750469
000380 80 ee 8b bd cc 48 25 3e 47 a5 85 bc 84 8b ec bc
       -0.068326 0.16141051 -0.016314162 -0.02887512
000390 8a 8a 02 3e 51 87 eb bd a6 5b 4a be 20 af 89 3d
       0.12748161 -0.11500419 -0.19761524 0.067228556
0003a0 bf 97 c2 bc 20 9c 9a b8 57 61 16 3e 6c b0 2f bd
       -0.023753999 -7.372373e-05 0.1468557 -0.04289286
0003b0 3a a0 90 3d b5 4d 63 bc 21 39 75 bc 3e 5e 13 be
       0.07061811 -0.013873507 -0.014967234 -0.1439142
0003c0 87 ad 26 3d 30 69 d2 bb 76 9b c8 bc 60 7a 2f bd
       0.040692832 -0.0064212307 -0.024488192 -0.042841315
0003d0 5d ee 29 be a0 a4 7d bd 78 c4 68 bc d5 d0 bf 3d
       -0.16594835 -0.061924577 -0.014206998 0.093660034
0003e0 95 24 7b 3a 00 68 ad bd 43 0c 2a 3d f2 1b 58 bd
       0.0009580341 -0.08467102 0.0415156 -0.052761026
0003f0 88 e8 a2 bd 58 7f 9b 3d 13 1f eb bc a9 42 41 be
       -0.07954508 0.07592648 -0.02870134 -0.18873085

B2 f4 [32, 8]
000000 fc 95 4d 3d 78 e0 3b be f2 74 38 bb 53 18 fa bd
       0.050191864 -0.18347347 -0.0028145877 -0.12211671
000010 d3 a0 24 3d f9 4c b5 bc 6e 3c c5 bd e9 f2 63 3d
       0.040192436 -0.02213143 -0.09630667 0.05565158
000020 1d e4 1f 3e d7 84 c1 bc cb 99 5e 3d 9d 6c 59 bd
       0.15614362 -0.023622913 0.054345887 -0.053082097
000030 ae 92 ab bd 1c 7e 3c bd 06 65 0b 3e 54 1c 88 bd
       -0.08377586 -0.046018705 0.13612756 -0.06646028
000040 3d 68 49 bd 71 5a 45 3d 9c 2e b5 3c 48 96 a4 3e
       -0.049171675 0.048181955 0.022116952 0.32145905
000050 d4 fa 4f 3d c3 c2 bd 3b 4c 6c 5b 3c de 1f d6 bd
       0.050776318 0.0057910397 0.013392519 -0.10455297
000060 9c 8e 6f 3c 15 54 7b 3d de ce fa bd 3f b0 3a 3c
       0.014621403 0.061359484 -0.12246488 0.011394559
000070 1f 53 02 be d0 18 b7 3d 13 b0 fa 3d 87 dd 0a 3d
       -0.1272702 0.089402795 0.12240615 0.03390267
000080 e2 a7 47 bc 13 20 50 3c 13 0b 20 be fe f5 7f bc
       -0.0121860225 0.01270296 -0.15629224 -0.015622614
000090 f7 c4 2c bd 50 f5 06 3e fc ff ec bd 86 a2 c5 bd
       -0.042180028 0.13179517 -0.11572263 -0.096501395
0000a0 3f d8 d3 3c 70 26 8c 3d 89 57 b3 bc cc e1 a0 bb
       0.02585995 0.06843269 -0.021892326 -0.0049097296
0000b0 53 43 86 be 98 e7 fc 3c b6 ff 5e be 87 ac d4 bc
       -0.2622324 0.030872151 -0.21777233 -0.025961174
0000c0 e5 72 03 be a7 3b 47 bd ef 7d d2 bc 7d 65 81 bb
       -0.12836798 -0.048640873 -0.025694815 -0.003948866
0000d0 ca 76 09 3e ce 15 95 3d cc f8 9a bb fe a4 d0 bc
       0.1342422 0.072795495 -0.004729366 -0.0254693
0000e0 34 9f 9b bd 0a 54 88 3d 20 b8 e9 bc 98 80 5e 3c
       -0.07598725 0.06656654 -0.02853018 0.013580464
0000f0 e3 8e 82 3d b0 8a 67 3c 6e 1a 6a bd 6e 06 7e bd
       0.0637491 0.014132187 -0.05715411 -0.06201785
000100 87 f1 03 3e 1c d4 08 3d 4b 95 5b 3c ee 48 73 3d
       0.12885104 0.03340541 0.013402293 0.059395723
000110 cf a3 ec bd fe 31 03 3d 57 93 40 bc a9 a1 7b bc
       -0.115546815 0.0320301 -0.011753879 -0.015358367
000120 cd 3e bd 3d 72 67 25 3d 41 dd bd 3d f3 f1 a7 bc
       0.09240494 0.040381856 0.092707165 -0.020501113
000130 0b 2d 8f 3b 96 df 7d ba e4 b3 d1 bb eb e7 8f ba
       0.004369383 -0.0009684501 -0.0063996185 -0.0010979151
000140 65 67 44 3e a6 d2 9a 3b be b2 53 3c 05 84 4c bd
       0.19180067 0.0047248183 0.012921033 -0.04993059
000150 fc ad 81 3d 07 a4 49 bd 80 85 88 bd 51 77 71 be
       0.06332013 -0.049228694 -0.06666088 -0.23580672
000160 66 44 68 bc d7 a7 20 bd d9 04 1e 3e 77 24 a2 3e
       -0.014176464 -0.039222565 0.15431537 0.31668445
000170 3a 76 86 3c 0c 43 f1 bc 63 9f 70 bd 3a 66 56 3d
       0.016413797 -0.029450916 -0.058745753 0.052343585
000180 3b a0 2c 3e b9 5e 02 3d d7 eb 3d bc 22 29 21 be
       0.16857998 0.031828616 -0.011591873 -0.15738347
000190 4d 1c 4f be 88 e7 1c be 41 00 22 bd 15 34 32 3d
       -0.2022564 -0.15322697 -0.039551023 0.0435067
0001a0 95 3b 9f bd a1 b2 28 be 71 b1 5a bc 0b 9f 1c 3e
       -0.07775036 -0.16474392 -0.013347969 0.15295045
0001b0 03 b7 e7 bc f1 0c 36 3e ca 28 6a be 2a 60 c1 3d
       -0.028285509 0.17778374 -0.22867122 0.0944217
0001c0 bb 76 8f 3d 7a f0 4f 3e bf 71 9f bc aa 47 46 3e
       0.07005068 0.20306578 -0.019463418 0.19363275
0001d0 64 a4 b8 bd 6e 7f ef bb 36 3d 15 be 18 63 84 bd
       -0.0901573 -0.007308892 -0.14574131 -0.06464213
0001e0 96 1a 14 3e 77 7f b9 3d 1c b7 60 be 68 44 bd bc
       0.14463267 0.09057515 -0.2194485 -0.023103908
0001f0 5a 23 91 3d ea 6c 2d be 9f 99 cc 3d fe 82 d9 bd
       0.07086821 -0.16936079 0.099902384 -0.10620688
000200 b7 eb 87 bc 6d b9 5c 3d c9 89 6f 3a 08 ec 03 bd
       -0.01659189 0.053887773 0.0009137658 -0.03220752
000210 9e 17 77 3d 1c a7 fa bd 95 0c 29 be 2e 99 c0 bc
       0.060325257 -0.12238905 -0.16508706 -0.023510542
000220 2a fa 36 3e cc fb 12 bd 81 0c 08 3e 13 dc cb bd
       0.17868868 -0.035884663 0.1328602 -0.09954085
000230 16 a5 96 bd 4c 56 de 3b 0b 19 9f 3d 98 a3 3a be
       -0.073557064 0.0067851897 0.077684484 -0.18226469
000240 23 76 78 3e 74 7c a1 3d c0 67 23 be 70 e2 a9 3d
       0.24263816 0.07885066 -0.15957546 0.08295143
000250 e5 5b 06 bc 0c 16 07 3e 79 13 8d bd 33 83 b4 bb
       -0.00820062 0.13192004 -0.0688848 -0.005508804
000260 99 63 d7 3d 70 d2 28 3d 37 e5 af 3c 2a d2 43 3d
       0.105170436 0.041216314 0.021471603 0.04780785
000270 d2 23 05 3d 25 bd 92 3a 97 70 0c be 05 8e 5c bc
       0.032504864 0.0011195285 -0.13714825 -0.0134615945
000280 6d 94 8e 3d ea 23 25 be 79 27 0e 3e 96 1a 0a 3d
       0.06961904 -0.16126981 0.13882245 0.03371676
000290 80 3a ad bd 97 e5 51 be f6 3c 00 3e 65 8a 6c 3c
       -0.084584236 -0.20497738 0.12523255 0.014437293
0002a0 e2 52 2a 3c 13 01 b8 bd 63 44 13 bd 0e c4 80 3c
       0.010395737 -0.0898458 -0.03595389 0.015718486
0002b0 d9 6e 78 3e dc ac ae bd d4 db 22 3d 3d 77 d3 bd
       0.24261035 -0.08529064 0.039760426 -0.10325477
0002c0 47 51 5c be 94 18 73 3e 72 8c e1 3d 43 0e dc 3b
       -0.2151538 0.23739845 0.11013116 0.0067155673
0002d0 71 34 b5 3d b8 73 bb 3c f7 04 db 3d 6f 25 2a be
       0.08847893 0.022882327 0.10694306 -0.16615842
0002e0 2c d7 eb 3c a5 5e 28 bc 39 ce 09 bc c7 b8 e3 3b
       0.028789125 -0.010276471 -0.008410984 0.0069495174
0002f0 1c 05 80 3c fc 89 d4 3d 7a 43 8d 3d 99 f0 21 3e
       0.015627436 0.10377881 0.06897636 0.15814437
000300 38 f7 3e bd dd ae 9f bd 1f 95 65 bb 40 54 68 bc
       -0.046622485 -0.077970244 -0.003503151 -0.014180243
000310 90 ab ba bd 8b f2 50 3d e6 8a 1c 3d a6 44 24 3e
       -0.09114754 0.051012557 0.0382184 0.16041812
000320 6b 14 6b bc cd f8 0b 3d c9 f9 28 3d eb 46 30 3e
       -0.01434813 0.03417282 0.04125384 0.17214553
000330 be 57 5b 3d 4c c1 2a be f0 cb ff bd f7 92 33 3d
       0.053550474 -0.166753 -0.1249007 0.04384133
000340 16 d9 a5 3d 24 d8 e9 3d cc 87 7b 3d d6 b2 51 be
       0.080980465 0.11418179 0.061408803 -0.20478377
000350 03 8d 24 3e d3 68 7b 3c 7a fc ba bc ef 10 02 be
       0.16069417 0.015344816 -0.022825468 -0.12701772
000360 59 f1 47 bd 56 c1 ca bd 30 d8 1d bb 2d 4e 41 bd
       -0.04881415 -0.09900157 -0.0024085157 -0.047193695
000370 1a a8 24 bd ae 67 c2 3d 68 1a 0d 3d 36 36 47 3d
       -0.040199377 0.094924316 0.03444901 0.048635684
000380 53 10 82 3d 2a 8c c9 bc a0 1f 53 ba 3e a3 67 be
       0.0635077 -0.024602968 -0.0008053724 -0.22620866
000390 c0 5c 15 be 0c 56 a6 3c c7 b2 bc bd 68 00 10 bc
       -0.14586163 0.020304702 -0.092137866 -0.008789159
0003a0 43 35 28 3b 5f 0f c0 3d 66 67 34 bd e6 fc a7 ba
       0.0025666512 0.09377932 -0.04404392 -0.0012816458
0003b0 88 1a c3 bc 0c 2f b7 bd 36 04 81 3d 56 fc 8b 3d
       -0.023816362 -0.0894452 0.06299631 0.06835239
0003c0 43 47 a0 bb 33 b9 99 bd 48 29 a8 bd e0 4e 04 3e
       -0.0048913076 -0.07506027 -0.08210999 0.12920713
0003d0 49 da 43 bd 99 82 bf 3c 49 74 e1 bd bc 48 9c bd
       -0.047815595 0.023377704 -0.11008508 -0.076310605
0003e0 34 11 06 be 3d 41 96 3d 1b 97 61 bd 26 f0 4e bd
       -0.130925 0.07336662 -0.055075746 -0.050521992
0003f0 61 98 d5 3d df 24 e0 3d 8d 8c c4 bd 8f 71 8c 3d
       0.104294546 0.109445326 -0.095971204 0.06857597

C2 f4 [4, 32]
000000 fd 5a 61 bd 76 fc 48 bd 7b 84 05 3e e6 a8 a4 bc
       -0.055018414 -0.04906889 0.13038819 -0.020100068
000010 06 e6 94 3d 69 b7 01 3e c4 19 09 bb 42 36 95 bd
       0.07270436 0.12667622 -0.0020919899 -0.072857395
000020 4a c0 9d bc a2 f8 2a be c6 98 18 be c6 e2 1b be
       -0.01925673 -0.16696408 -0.14902028 -0.15223226
000030 66 06 c1 bd 7e d5 37 3c 95 d9 ca bc 0c 6c 51 bd
       -0.094250485 0.011220334 -0.024761954 -0.051128432
000040 05 4c 91 bd fb f6 4e bb e5 6d 71 be 7b 60 a3 bd
       -0.07094578 -0.0031580317 -0.23577078 -0.079773866
000050 70 28 0d bd 2e e5 2c 3d 4e fc 52 bd 1c 54 1c bd
       -0.034462392 0.04221075 -0.051510148 -0.03816615
000060 b6 fa b9 bc 0f bb aa 3a fa c1 e7 3d cf 01 3f bd
       -0.022702556 0.0013025719 0.11316295 -0.046632584
000070 c4 ed d9 3b e1 ed f8 bc b6 42 02 be e6 2b 37 3e
       0.0066506583 -0.030386867 -0.1272076 0.1788784
000080 e6 d5 df 3d ca f0 3d 3d 2a ad 62 bd 84 1c 4b bd
       0.1092947 0.046372212 -0.055340923 -0.04958774
000090 50 41 6f be be 07 2f 3d c4 c7 dd 3c 4f 0a ad bd
       -0.23364758 0.042731993 0.027072795 -0.08449232
0000a0 4b b4 d4 3d 70 62 98 bd 5a 80 c8 bc 14 f8 83 3d
       0.10385951 -0.074406505 -0.024475265 0.064438015
0000b0 9b 30 56 3c f5 00 29 3e a6 7c 14 bc f8 0b 64 3e
       0.013073112 0.16504271 -0.009062922 0.2227019
0000c0 08 4b bf 3d 95 9a d2 bc 85 43 a5 bd 82 bb 38 3e
       0.09340483 -0.025708476 -0.08069519 0.18040279
0000d0 63 5b b3 bd 88 06 a5 3d 73 3a f1 3c 25 60 a5 bd
       -0.08757665 0.08057886 0.029446816 -0.08074979
0000e0 c1 06 80 bb a9 2a 18 3d 8f 0f 2d be f5 fb e7 bd
       -0.003907055 0.03715006 -0.16900466 -0.11327354
0000f0 70 bb c8 3d a2 e6 87 bd f4 04 14 be d2 af 86 3b
       0.09801376 -0.066357866 -0.14455014 0.004110315
000100 dc 50 ae 3d ff 4a 51 3e af b4 d0 bd c1 b6 f1 bd
       0.085115165 0.20438765 -0.10190713 -0.11802436
000110 ff 13 82 3d 9b e6 4b 3c 65 16 17 3d 81 e0 f2 bd
       0.0635147 0.012445117 0.03688659 -0.11859227
000120 c2 de c2 3c 19 18 9f 3c 7b 0b de 3d bc 8c fb 3c
       0.02378786 0.01942067 0.108420335 0.030706756
000130 de f5 81 bd 99 96 b0 3c 41 31 36 3b a7 42 85 bb
       -0.063457236 0.021556186 0.0027800354 -0.0040667835
000140 b5 fe b1 bc cf d1 a9 bd 34 e2 03 bc 6c 0f cb 3c
       -0.0217279 -0.08291971 -0.0080495365 0.024787627
000150 2a 2c f7 3b 31 a4 bd 3d 0f 71 48 3e 7f e0 d6 3d
       0.0075431066 0.09259833 0.19574378 0.10492038
000160 c8 35 fb 3b ab 15 8f 3d a4 16 4a 3e 18 53 00 bd
       0.0076663233 0.06986555 0.19735199 -0.031329244
000170 c8 f4 0d 3e 1c fb dc bc d3 f3 a9 be 6a 78 5f 3d
       0.13862908 -0.026975207 -0.33193836 0.054558195
000180 73 90 4c be 76 e2 47 3b 47 a4 06 3e 62 a2 43 bc
       -0.19976978 0.0030499971 0.13148604 -0.011940571
000190 33 0f 0b bc 3f 10 e2 bd fd 73 e7 3d 7f 85 75 bd
       -0.0084875105 -0.11038255 0.1130142 -0.059941765
0001a0 c8 4f 85 3d 35 23 eb 3d ef 53 ff bd 0d 44 97 bd
       0.06509358 0.114813246 -0.12467181 -0.073860265
0001b0 c7 75 05 3e bd b2 5d 3d 1b 52 5e 3d 7b cb a7 3d
       0.1303321 0.054125536 0.05427752 0.08193108
0001c0 69 51 ce bd a7 8b 29 3d e1 9d 01 bc c7 e2 b2 bd
       -0.100741215 0.04139295 -0.007911176 -0.087346606
0001d0 af a1 61 3d ee c6 2e be 56 cc ad 3c 41 48 8d 3c
       0.055085834 -0.17068073 0.021215599 0.017246367
0001e0 ea a9 b0 bd 0a 45 8e be 40 95 c2 bb 78 59 27 bd
       -0.086261585 -0.27787048 -0.005938202 -0.04085681
0001f0 b7 26 d7 bb 4a 00 c6 3d 56 25 89 bc 5f 3e 0a be
       -0.0065658945 0.09668024 -0.016741436 -0.13500355

D21 f4 [4, 32]
000000 36 46 89 bd ee dc b4 3d fa 52 00 be 78 8f 8f bd
       -0.06702845 0.088312015 -0.12531653 -0.07009786
000010 e7 9c 22 3a 27 da 25 bd 88 44 24 be 2c e8 42 bd
       0.000620319 -0.04049125 -0.16041768 -0.047584698
000020 60 9b 8f bd 73 1c 21 3d 10 69 e0 bd 24 e6 2b 3d
       -0.07012057 0.039333772 -0.10957539 0.041967526
000030 50 c8 07 3e a2 61 e1 3c f7 d9 d1 bd 81 e8 98 3c
       0.13260007 0.027512375 -0.102466516 0.018665554
000040 5c 36 51 3e 98 5f bd bc 46 88 21 be 9f b0 3a bd
       0.20430893 -0.023116872 -0.1577464 -0.045578595
000050 28 c2 8c 3d 85 0c e4 3d 15 62 1d bd 2c 0c e8 bd
       0.0687297 0.111352004 -0.038423616 -0.113304466
000060 c6 2f e7 bc f4 af 08 3d fa ca cf 3d 03 38 a7 bc
       -0.028221022 0.033370927 0.101461366 -0.02041245
000070 50 fb 4f bd 87 83 8d 3a d9 4f 65 bd bd 36 ed bd
       -0.05077678 0.0010796644 -0.05598435 -0.11582706
000080 81 57 89 3e 6f f8 6d bd 3b c8 22 bc e7 d8 86 bd
       0.26824573 -0.058098253 -0.009935434 -0.065843396
000090 0d 83 81 3d c5 55 04 bc 2e 94 4e bd 9d b1 48 bd
       0.06323824 -0.00807709 -0.050434284 -0.04899751
0000a0 08 26 70 bd 0b ee 2e 3d ba 39 37 3e 6d cc b6 3c
       -0.05863002 0.042707484 0.17893115 0.022314275
0000b0 82 23 02 be 74 c5 0e bc d6 0d c0 3d 7a 90 77 3e
       -0.12708858 -0.008714069 0.09377639 0.24176207
0000c0 02 9d b8 bd 8d 7a 73 bd 57 43 08 ba 59 47 52 3d
       -0.09014322 -0.059443045 -0.00051980227 0.051337574
0000d0 1d 61 4f 3e c3 76 2f 3e 85 46 47 be 61 7e 70 3d
       0.2025189 0.17135148 -0.19460495 0.058714274
0000e0 e6 96 28 be 8c 94 5d 3c da 89 ad bd 07 c8 bf bd
       -0.16463813 0.013524186 -0.08473559 -0.09364324
0000f0 76 c1 29 3e 0f 49 f0 3d 85 5f 93 bd 60 3b 3a 3b
       0.16577706 0.11732685 -0.07195953 0.0028416738
000100 86 a7 4c bd 2b 6b 65 3d e3 e2 4d bd 6b 6a ab bd
       -0.04996445 0.056010406 -0.050265204 -0.08369907
000110 10 f0 d1 bd 9a 8b 4f be 54 c2 f3 3d 80 b4 08 be
       -0.102508664 -0.20268098 0.119022995 -0.13350105
000120 85 c6 41 be 98 bd 8b bb cd 12 48 3d 39 f6 aa 3d
       -0.18923385 -0.0042645447 0.048846055 0.083477445
000130 1a 7f 13 3e b5 1c f2 3d 8a 7f 7c 3d b7 eb 3d be
       0.14403954 0.11821882 0.06164507 -0.1854695
000140 55 6f d7 bd f0 e6 1e be a4 9f e3 3c 28 c9 77 3e
       -0.10519282 -0.15517783 0.027786084 0.24197829
000150 ba c1 fc bc 08 2d a2 3c 75 f1 12 3c 88 ab d1 bc
       -0.030854095 0.019796863 0.008968701 -0.025594488
000160 3d fc 28 be af a5 7b bd e0 e6 63 3d c5 f9 64 bd
       -0.16502471 -0.061437305 0.0556401 -0.05590226
000170 3a 9b e6 bd a0 9e ea bd 3d cd 16 3d a5 1a a2 3d
       -0.11260076 -0.114560366 0.036816824 0.07915238
000180 f5 eb 12 be 14 bd c8 3c 02 4d 1a be ae b6 3b 3d
       -0.14347823 0.024504222 -0.15068439 0.045828514
000190 78 4d 29 be b7 54 17 3e b8 e4 0b 3d 3c 95 08 be
       -0.16533458 0.1477841 0.03415367 -0.13338178
0001a0 6e 5a 3d bc 70 99 57 39 a9 84 5c 3d 77 28 ee 3d
       -0.011557205 0.00020561158 0.053837452 0.11628812
0001b0 e9 3e 9e 3d 5a d7 14 3e e8 75 07 3e a6 27 d7 bd
       0.07726843 0.14535275 0.13228571 -0.10505609
0001c0 2e ed 88 bd 42 0e 40 be 00 94 38 3e e7 9b 63 be
       -0.066858634 -0.18755439 0.18025208 -0.22227441
0001d0 7b 7f 36 be 1d 98 a7 bc e6 0c c0 3d 9f 3a 04 bd
       -0.17822067 -0.020458275 0.0937746 -0.032282468
0001e0 89 67 48 3e 4e a5 df 3d bd 93 c0 bd 65 ed 80 3d
       0.19570746 0.10920201 -0.09403179 0.062952794
0001f0 86 c3 22 3e 07 33 83 bd 6f 95 0a bc 69 b2 1e 3e
       0.15894899 -0.06406217 -0.008458479 0.15497746

D22 f4 [4, 8]
000000 b3 e8 97 bc 46 b5 fd bc 13 7c ed 3d 9e ab e4 3d
       -0.018543577 -0.030970227 0.11595931 0.11165546
000010 22 c5 3c be fc 4f 39 3d 3a cc 60 3d 86 d5 54 3e
       -0.18434575 0.045242295 0.054882266 0.20784578
000020 86 e9 d8 3d d6 2a ed bb eb b4 66 bd 83 c4 51 bd
       0.10591416 -0.0072377725 -0.05632488 -0.0512128
000030 dc 7a 16 3d 45 dc e8 3b 2f 06 13 3d 0b 9a dc 3c
       0.03673826 0.0071063363 0.03589457 0.026928922
000040 5a 3b b2 bd 76 b1 40 3d c9 a6 4c be b5 90 6b 3c
       -0.08702727 0.04704424 -0.19985498 0.014377763
000050 55 48 af 3d 8a 7e 1b bd d8 8c 72 bc 99 62 97 bd
       0.08558718 -0.037962474 -0.014804088 -0.07391853
000060 a9 64 94 bd a2 8f 7b bb f0 f9 bc bd e3 84 0d bd
       -0.07245762 -0.0038385172 -0.09227359 -0.03455056
000070 fa a7 13 3d c8 e1 1f 3e 25 81 a9 bd 82 75 41 3e
       0.036048867 0.15613472 -0.082765855 0.18892482

D12 f4 [32, 8]
000000 7b c6 00 be 67 38 d9 3b 39 c3 01 3e d4 fa fd 3d
       -0.12575714 0.006629038 0.12672128 0.12401357
000010 b6 08 57 bc 54 0d e5 3d c1 dc ec 3d 92 59 46 3d
       -0.013124635 0.11184183 0.11565543 0.048425265
000020 d6 05 9f bd a1 65 82 bd 58 37 00 bd 27 8f 00 3d
       -0.07764785 -0.063670404 -0.03130278 0.03138652
000030 ef e2 87 bd d2 d5 80 bc de 93 34 be 64 4a b5 3c
       -0.06635081 -0.015726957 -0.17634532 0.022130199
000040 74 58 d0 bd 67 a9 d1 3d cc 6e d2 3d 65 e8 a6 3d
       -0.10173121 0.10237389 0.10275039 0.081497945
000050 85 31 d2 bc 8c 3f d0 3d ce 5a e2 bb bf 6d 67 bd
       -0.025658378 0.101683706 -0.0069077974 -0.056501146
000060 a1 01 23 3c ee 70 9f 3c 23 e0 cf bb 36 6b c4 bd
       0.009949119 0.019463029 -0.006343858 -0.09590761
000070 d0 9f f8 3d e9 e1 08 be 20 8a 39 3d 34 15 d3 b8
       0.12139857 -0.13367428 0.045297742 -0.000100652134
000080 88 08 c0 3c 50 ec 8f 3d e3 46 d9 3d 0d d2 84 bd
       0.023441568 0.07027495 0.10609224 -0.064853765
000090 2e 5d da 3d fa 5c dc bd d6 b9 c5 3d 22 68 9f 3e
       0.10662304 -0.10759921 0.09654586 0.31134135
0000a0 bf 81 f5 3c 79 46 cb 3d 82 7e ca bd 85 2f 53 3d
       0.029969094 0.09925551 -0.09887411 0.05155899
0000b0 03 7c 0b 3e 19 78 3b bd 9c fb 0f 3e 1d 01 bc bc
       0.13621525 -0.04576883 0.14060825 -0.02294975
0000c0 e3 95 13 3e 95 fd 1e 3e 38 0c d3 bd 3b ea 69 bd
       0.14412646 0.15526421 -0.10305065 -0.057108145
0000d0 6b 03 06 bd d7 02 d3 bd b6 65 12 be a6 08 69 3e
       -0.032718103 -0.10303276 -0.14296612 0.22757205
0000e0 cd c7 a9 3d c6 68 7b bd 08 39 b3 3d a9 0e 90 bc
       0.08290062 -0.061379217 0.08751112 -0.017585116
0000f0 0c 97 2c bd 02 74 56 bc 7f 77 08 3d dd 62 91 bd
       -0.042136237 -0.013089182 0.033317085 -0.07098935
000100 c5 c3 87 bd 2e a6 54 be 98 57 b3 3d f5 ee cb 3c
       -0.06629137 -0.20766518 0.087569416 0.024894217
000110 18 7c 01 bc 0c b0 58 bd 6a 72 eb bb 58 3e 0d 3d
       -0.007903121 -0.052902266 -0.00718527 0.034483284
000120 8e 52 99 ba ae 24 9c 3d b9 2f 0e bc ee 41 b9 3d
       -0.0011697577 0.076241836 -0.00867837 0.09045778
000130 fa 44 cb 3d d1 ca b0 3c 3e 91 83 bc fb bf ac 3c
       0.099252656 0.021581085 -0.016060468 0.021087637
000140 9c 90 22 3d 04 37 b0 bd 12 72 24 bc 39 75 6e bc
       0.03968869 -0.086042434 -0.010036962 -0.014554315
000150 db 4f 17 3d 93 de 41 bc e7 b2 aa bd ca 6a bb bd
       0.03694139 -0.011832851 -0.08334904 -0.09151228
000160 42 5c 62 bd 6e 82 c0 3d 6b c2 94 3d b6 02 8e bc
       -0.055263765 0.093998775 0.07263645 -0.017335277
000170 88 e0 61 3e 0a d1 80 3d 2c b3 26 be 7d 3f aa bc
       0.22058308 0.06289871 -0.16279286 -0.020782227
000180 b5 bc 7d bd 08 7b a1 3b e3 61 1b be 3c a5 2d bd
       -0.061947543 0.0049279965 -0.1517406 -0.042393908
000190 33 99 39 3e f3 33 1a 3e 65 51 11 3d 25 b4 c6 bc
       0.18124847 0.1505888 0.035478014 -0.024255821
0001a0 31 f3 c0 3d e7 f9 33 3d 31 33 2a be 1d 12 9b 3d
       0.09421385 0.043939497 -0.1662109 0.07571814
0001b0 90 a6 a9 3d 03 c9 47 bc d3 75 9c 3d c7 89 4f bc
       0.082837224 -0.012193921 0.07639661 -0.012667126
0001c0 30 cc 97 bd 7f 20 f9 bc 9d 42 83 bd d3 bb bc bc
       -0.074119925 -0.030411003 -0.0640919 -0.02303878
0001d0 40 53 b7 3b 88 88 29 3e 9f 33 bc 3d bb 08 11 bd
       0.005594641 0.16555989 0.091895334 -0.035408717
0001e0 6c fc fe bb 46 8c 1b 3e 49 29 36 bd 43 01 0d 3d
       -0.007781556 0.15190229 -0.044472966 0.03442503
0001f0 f2 78 61 3e 46 6e 53 bc 62 49 9c bd bb 73 84 3c
       0.22018793 -0.012904709 -0.07631184 0.016168466
000200 0e 41 ca bd ea 46 87 bc d7 8d 87 3d b7 9a 48 bc
       -0.098756894 -0.016513307 0.06618851 -0.012243918
000210 97 35 1e 3c de ba c6 bd 0d f1 4e be 68 05 7a 3e
       0.0096563315 -0.09703611 -0.20209141 0.24416125
000220 84 bc a2 3c af c8 4e bc 29 af 5c bc e3 a5 bf bd
       0.019865282 -0.012621089 -0.013469496 -0.09357812
000230 61 28 4c be b2 f1 a4 bc 2c 9e 58 be bf 78 23 be
       -0.19937278 -0.02013478 -0.21154088 -0.1596403
000240 4f ba b9 3d ed 4d 5b 3d e0 98 a7 3c f3 b4 c2 bd
       0.09068739 0.053541113 0.020458639 -0.095071696
000250 0c 3e ec 3c 0e fe 2e 3c b3 b7 e4 3d 78 4f e4 bd
       0.02883818 0.010680689 0.1116785 -0.1114797
000260 52 0c 41 be bf 26 33 be de 6f 20 bd 39 58 2d be
       -0.18852356 -0.17495249 -0.039169185 -0.16928186
000270 34 cf 62 bd ef cc 42 3d 5e 42 ab 3d d6 a2 c1 bd
       -0.055373386 0.04755872 0.08362268 -0.094548866
000280 34 32 02 bd ed f6 04 3e d5 d7 c0 bd c8 0a aa bb
       -0.03178616 0.1298482 -0.09416167 -0.0051892735
000290 21 b1 59 3d 3e 56 35 3d 73 39 ee ba 66 5b 39 3b
       0.05314744 0.0442717 -0.001817508 0.0028283237
0002a0 f7 c9 ae bd 12 01 3b bd 34 b9 8f 3d 69 30 39 3e
       -0.085346155 -0.045655318 0.070177466 0.18084873
0002b0 0a 9a 84 bc b2 c4 e1 bd fb 83 9c 3d 24 59 4d 3d
       -0.016186733 -0.11023845 0.07642361 0.05013384
0002c0 a1 d0 a5 3d 1c af 01 bd 3d 64 02 3e d7 03 12 3d
       0.080964334 -0.031661138 0.1273355 0.035648193
0002d0 eb 16 cc bd 4c 62 50 bd e6 39 ab bd 7e f9 d4 bd
       -0.09965309 -0.050874993 -0.083606526 -0.10399149
0002e0 37 fa 00 be 1c b8 77 3c 71 5a 9f 3d 87 5a 0a 3e
       -0.1259545 0.015119579 0.07780922 0.13511096
0002f0 04 f4 b9 bc a7 a1 3c bd 4e e6 a3 3c c3 fc 62 bd
       -0.022699364 -0.0460526 0.020007279 -0.055416834
000300 9d 70 27 3e 27 3e ad bd 03 1d a6 bb 35 3e 5b 3e
       0.16351552 -0.0845912 -0.0050693764 0.21410449
000310 d8 01 e6 bc 35 73 40 3c f3 57 f4 bd ce cb fb 3d
       -0.028077051 0.0117462175 -0.119308375 0.12294732
000320 de 99 b3 3d 36 57 14 bd 59 72 4b bd 9f 63 33 3d
       0.08769582 -0.036215983 -0.049669597 0.043796178
000330 af 15 f8 bd 89 7b 27 3d f1 39 53 3d 64 6b 37 bb
       -0.12113511 0.040889297 0.05156893 -0.0027987594
000340 fb 4b 5d 3d 1b 57 09 3e 61 35 38 3d 73 03 87 3c
       0.05402754 0.13412134 0.04497278 0.016481137
000350 41 5f 33 be ee d5 0e 3e 96 f7 ba ba c9 14 d7 3c
       -0.17516805 0.13948795 -0.001426446 0.026255028
000360 ed 51 04 3d 26 b1 29 bd ac c6 d6 3a de ff 5b bd
       0.032304693 -0.041428708 0.0016386113 -0.05371081
000370 66 3a b0 3b 6e 08 d4 3c 56 39 0f bd 9d 57 15 3e
       0.0053780554 0.025882926 -0.03496679 0.14584203
000380 6d 23 c6 3d b4 0e b8 bc b9 16 f9 3d 14 eb e6 3d
       0.09674726 -0.022467948 0.12162537 0.11275306
000390 76 6c 43 be df d5 e3 3d 7c 81 cc bd 15 17 b1 3d
       -0.19084343 0.11124777 -0.09985635 0.08646981
0003a0 36 55 1e ba 1b 8e 68 3d bd 54 ae 3c a0 ea ed 3d
       -0.0006039919 0.056776147 0.02128064 0.11617017
0003b0 07 3f 29 be af cc 70 3d 86 24 49 bd a5 c4 2a be
       -0.1652795 0.05878895 -0.049107097 -0.16676576
0003c0 52 28 a6 3d 29 58 14 be 0a 9b 1c bd 2f 22 37 3d
       0.08113159 -0.14486755 -0.038233794 0.044710334
0003d0 94 07 0b 3e 56 8a 80 bd a4 73 03 be bd 69 fe bd
       0.1357711 -0.062763855 -0.12837082 -0.12422512
0003e0 16 c5 cd 3d fd f5 66 bc 01 e2 26 bc 04 ec 37 be
       0.10047357 -0.014096734 -0.0101857195 -0.17961127
0003f0 b2 4d ac bd df 4f 3e 3c 58 b4 25 3b 2c 30 d1 3d
       -0.08413257 0.011615722 0.0025284495 0.10214266
